…
[2025-09-25 22:54:07,356][__main__][INFO] - Mapping saved at : /Users/msingh361/Uber/Projects/Personal_projects/Vision Transformers (ViT) from scratch/multirun/2025-09-25/22-46-19/2/class_mapping.json
[2025-09-25 22:54:07,356][__main__][INFO] - Model Creation Begin
[2025-09-25 22:54:07,443][__main__][INFO] - Model Creation Completed.
[2025-09-25 22:54:07,444][__main__][INFO] - --- Model Summary ---
[2025-09-25 22:54:07,461][__main__][INFO] - ===============================================================================================
Layer (type:depth-idx)                        Output Shape              Param #
===============================================================================================
VisionTransformer                             [32, 4]                   --
├─ViTInputLayer: 1-1                          [32, 197, 256]            50,688
│    └─PatchCreation: 2-1                     [32, 196, 256]            --
│    │    └─Conv2d: 3-1                       [32, 256, 14, 14]         196,864
│    └─Dropout: 2-2                           [32, 197, 256]            --
├─Encoder: 1-2                                [32, 197, 256]            --
│    └─ModuleList: 2-3                        --                        --
│    │    └─EncoderBlock: 3-2                 [32, 197, 256]            527,104
│    │    └─EncoderBlock: 3-3                 [32, 197, 256]            527,104
│    │    └─EncoderBlock: 3-4                 [32, 197, 256]            527,104
│    │    └─EncoderBlock: 3-5                 [32, 197, 256]            527,104
│    │    └─EncoderBlock: 3-6                 [32, 197, 256]            527,104
│    │    └─EncoderBlock: 3-7                 [32, 197, 256]            527,104
├─Sequential: 1-3                             [32, 4]                   --
│    └─LayerNorm: 2-4                         [32, 256]                 512
│    └─Linear: 2-5                            [32, 4]                   1,028
===============================================================================================
Total params: 3,411,716
Trainable params: 3,411,716
Non-trainable params: 0
Total mult-adds (G): 1.34
===============================================================================================
Input size (MB): 19.27
Forward/backward pass size (MB): 710.08
Params size (MB): 13.44
Estimated Total Size (MB): 742.80
…
